sample_team/simple_final.onnx (onnx, 935708 bytes, 134 tensors)

mean f4 [3, 1, 1]
000000 9a 59 f7 42 5c 8f e8 42 5c 0f cf 42
       123.675 116.28 103.53

std f4 [3, 1, 1]
000000 7b 94 69 42 e1 7a 64 42 00 80 65 42
       58.395 57.12 57.375

neck.lateral_convs.0.conv.weight f4 [96, 48, 1, 1]
000000 10 f2 dc bc 34 93 7c 3c 37 1f 32 3c 69 aa f6 bd
       -0.026970893 0.015415955 0.0108717 -0.12044222
000010 4a 9a 30 be c1 16 35 3d 2b 7e f6 3c c9 33 8f be
       -0.17246357 0.044211153 0.030089458 -0.27969196
000020 48 fe e9 3c 96 c1 4d 3d ec 77 f1 bd 86 f6 01 bc
       0.028563634 0.050233446 -0.117904514 -0.007932311
000030 45 a7 b8 3d d7 9b f6 3d 61 f2 4d bc 71 ef 81 3d
       0.09016279 0.12041443 -0.012569995 0.06344498
000040 cd 00 10 bd 00 d8 35 3e 8b 17 44 bd 45 35 2c 3d
       -0.035157014 0.17758179 -0.047874015 0.04204299
000050 14 cb 0f be 13 e7 54 3c eb 5a 21 3b 24 9e f1 bd
       -0.14042312 0.0129945455 0.0024620842 -0.11797741
000060 be fa 21 3c 0a 27 ef bc 91 20 be be 2a 53 97 bc
       0.009886442 -0.02919342 -0.3713422 -0.018472273
000070 9f 38 39 bd e4 11 03 3e 6b d1 01 3d b2 40 b1 3d
       -0.045220014 0.12799793 0.031693857 0.08654918
000080 d4 0b a1 3d d3 c9 47 be a9 20 44 3d c1 d2 b6 3c
       0.07863584 -0.19510584 0.04788271 0.022317292
000090 a8 b0 6b bd fa a6 18 be e2 13 f0 bd 1a 5b 54 bd
       -0.05754152 -0.14907447 -0.11722542 -0.051844694
0000a0 fe 3b 78 be 9a aa bd 3c c1 f0 a6 bd 4e 30 57 3e
       -0.24241635 0.023152638 -0.08151389 0.2101452
0000b0 95 b8 ce bc d1 27 0a be 6f 4b 82 bd f3 0a 9e bd
       -0.0252345 -0.13491751 -0.06362044 -0.07716932
0000c0 d9 35 c6 3d e0 36 dc 3d e8 1e a7 3d d8 ff 06 3e
       0.096782394 0.10752654 0.08160192 0.13183534
0000d0 d3 d1 f0 3d 68 67 9e bd 1f 33 e5 bd f6 3a 2a bd
       0.11758771 -0.07734567 -0.11191391 -0.041560136
0000e0 66 60 ae 3d a4 d5 87 3e ee 28 fb bd 62 1c 19 be
       0.0851448 0.26530182 -0.12263666 -0.14952233
0000f0 c9 10 e6 bb 09 0e 58 3c 7d f1 6d 3d 0c 28 d5 bc
       -0.007021044 0.01318694 0.05809163 -0.026020072
000100 46 af 1e bd 1f b0 21 bd 09 90 73 be 07 ad 41 be
       -0.038741373 -0.039474603 -0.23785414 -0.18913661
000110 ff e6 49 be 74 02 cd bd ef cc f2 bd 50 7b 17 3b
       -0.19717024 -0.100102335 -0.11855494 0.0023114271
000120 ba f9 79 3d 7e 4f de bc 8b d9 2a be 55 32 17 bd
       0.061029173 -0.027137514 -0.16684549 -0.036913235
000130 43 87 2c 3d 86 99 be 3e 86 01 46 be 27 ff 2c 3d
       0.042121183 0.37226504 -0.19336519 0.04223552
000140 5f 85 6e bc 28 d7 25 be 63 6e 75 3d cc 1c 8f bd
       -0.014558165 -0.16195357 0.059919726 -0.069879144
000150 df fa 74 3c 02 9c 85 bc c2 eb c7 bc 57 0f f2 3d
       0.01495239 -0.016309742 -0.02440441 0.11819332
000160 11 21 a3 bd ed ea 0a 3e 55 81 bf bc 47 cc e5 3d
       -0.07965291 0.1356618 -0.0233771 0.112206034
000170 d5 84 21 3e 7a 93 ec 3c ef e4 0b 3e da 2e 2a be
       0.15773328 0.028878916 0.1366155 -0.16619435
000180 a6 89 f8 bd 58 20 02 3e 6e 41 94 bc 23 45 97 bd
       -0.12135629 0.1270765 -0.018097606 -0.07386234
000190 52 7a a1 bd e0 80 da 3d ff b9 f8 3c 99 e2 72 be
       -0.07884659 0.10669112 0.030362127 -0.23719253
0001a0 87 25 c7 3d f8 9e 8f be 73 f0 0c be 51 31 87 bd
       0.09723955 -0.2805097 -0.13763599 -0.06601203
0001b0 9c e3 fa 3c e1 77 9b bd 52 d7 21 3d ff 00 45 be
       0.03062611 -0.075912245 0.039511986 -0.19238661
0001c0 ad e7 c9 bd 3a f5 f5 bc 62 0d b3 ba 9c 96 64 3e
       -0.09858642 -0.03002416 -0.0013660605 0.22323078
0001d0 77 75 18 be 0c 96 60 bd 71 2f ca bd 98 a9 b2 bd
       -0.1488856 -0.054830596 -0.0987233 -0.08723754
0001e0 97 23 7b bc 00 16 10 3e ff 39 37 be 81 4b 76 bd
       -0.0153283095 0.14070892 -0.17893218 -0.0601306
0001f0 96 b1 75 3d 98 24 26 be 57 19 ec bc 3a a0 97 3c
       0.059983812 -0.16224897 -0.028820677 0.01850902
000200 27 4e f0 3b 64 ce aa 3b e8 6e 69 3e 5c 3c a9 bc
       0.0073335352 0.005212592 0.22796214 -0.020658664
000210 c5 57 ad 3d c0 69 15 be cf b3 df 3d 08 d9 83 3e
       0.08464006 -0.14591122 0.10922968 0.2575152
000220 b6 c2 71 3c 67 a1 88 3c 9c b3 04 be 96 85 97 bd
       0.014755895 0.016678525 -0.1295914 -0.07398526
000230 b4 c3 43 3e ea 5d 03 bd 84 a5 34 3c 07 6e 77 3d
       0.19117624 -0.032071985 0.01102579 0.060407665
000240 56 7c 80 3d 83 68 60 3d 45 aa 25 be 47 c1 08 3d
       0.06273715 0.05478717 -0.16178234 0.03338745
000250 bc fd f9 3b 3d 02 ab 3b 31 f8 b7 bc eb 95 87 3d
       0.0076291244 0.0052187727 -0.022457214 0.066203915
000260 15 68 05 bd ff 32 a0 3d a7 60 f0 3c 00 9b b7 bc
       -0.032569963 0.07822227 0.029342962 -0.022412777
000270 8a e2 81 3c c5 bd af bd 53 56 29 3d 7a e6 c6 bd
       0.015855093 -0.085811175 0.04134209 -0.09711929
000280 86 7e 3c be f2 1d 0c be b1 6b 6e 3e aa 9e 51 bd
       -0.1840764 -0.13683298 0.23283269 -0.051176704
000290 b6 6d a6 bd 51 5e 02 be fb 26 24 be 31 57 80 bd
       -0.081263945 -0.12731291 -0.16030495 -0.062666304
0002a0 3f e8 df bc aa 62 ac 3c 53 12 bf bd 00 f1 73 3b
       -0.027332423 0.02104314 -0.09329667 0.0037222505
0002b0 02 0f 7f bd 2d 03 84 3d 35 02 16 3e 80 65 42 bd
       -0.062270172 0.06445918 0.1464928 -0.04746008
0002c0 ab 80 6c be 6c 0e a2 3d db f8 ea bc f7 59 98 3c
       -0.23095958 0.07912907 -0.028683117 0.018597586
0002d0 31 32 a3 3d c6 fe 81 3d 91 dd 9a bd 31 fa 20 bd
       0.079685576 0.06347422 -0.07561792 -0.0393011
0002e0 06 c8 99 bc 18 2c 87 3d eb 6e 2b 3e 72 13 69 3d
       -0.018772136 0.06600207 0.1674153 0.05690331
0002f0 d8 8c a5 bd fe aa 15 be 0b 18 26 be 03 15 9e bd
       -0.080835044 -0.1461601 -0.16220109 -0.077188514
000300 b6 a7 76 3d 28 46 d4 bc df 16 25 be f2 83 b9 3b
       0.060218535 -0.02591236 -0.16122006 0.005661481
000310 ad 66 e6 bc 4c 34 ac 3d 84 7d 95 bc b6 15 62 bd
       -0.028125132 0.08408412 -0.018248327 -0.055196486
000320 2d 3c 78 bb e5 45 77 3d f9 1d b4 bd 76 bf 8e 3d
       -0.0037877664 0.06036939 -0.08794779 0.06970112
000330 44 8d 2a be 34 49 9e 3c 88 43 9e 3d 4c cc 03 3e
       -0.16655451 0.019322015 0.07727724 0.12870902
000340 1e 57 54 bc 3e 9a ca bd ad cf 0e 3d 2c 8f 19 be
       -0.0129602235 -0.098927006 0.034866024 -0.14996022
000350 0a c3 a9 bb 69 bd 4f 3e ff e3 73 3d a6 f4 dd 3d
       -0.005180721 0.20287098 0.059543606 0.108376786
000360 03 20 44 bd 6b e2 88 bd 56 b7 5c 3e 88 6e e1 3d
       -0.04788209 -0.06683811 0.21554312 0.1100741
000370 95 18 13 bd 8c 15 ca 3c f8 68 3f 3e 04 cf 50 3e
       -0.035912115 0.024668477 0.18692386 0.2039147
000380 d1 89 3c bc 95 17 fe bd 3b 3a 5f 3d 1b 7a 0d bd
       -0.011507467 -0.12406842 0.054498892 -0.034540277
000390 d0 08 e6 3d a5 fd 13 be 62 44 8c bd 0f 37 fa bc
       0.112321496 -0.14452226 -0.068489805 -0.030543832
0003a0 a3 e1 80 3c 6b 87 9c 3d df 15 93 3d 2f 33 ca bc
       0.015732592 0.076430164 0.07181906 -0.02468261
0003b0 b9 f2 06 3e 1c 4a e1 3d 79 86 92 3c c8 62 08 be
       0.13178529 0.11000463 0.017886387 -0.13318932
0003c0 ae 5c aa 3b 4d 74 6d 3d c9 4f 06 3e 9a e0 c5 bc
       0.0051990366 0.05797224 0.13116373 -0.02415495
0003d0 40 aa 9c 3d ce 4a 56 be 6b 8c 9b bd d7 73 d5 3c
       0.0764966 -0.20926973 -0.07595142 0.026056213
0003e0 17 06 2b 3d 44 cb 8c bd ce dd 99 bd df 07 ff 3d
       0.041753855 -0.06874707 -0.07513009 0.12452673
0003f0 67 51 fb 3d 63 50 ba 3c c9 4b 82 3e d4 60 a8 3c
       0.12271386 0.02274341 0.25448444 0.020553984

neck.lateral_convs.0.conv.bias f4 [96]
000000 7f cf 65 bc 97 4a df bc b0 15 13 3b 63 55 ee bc
       -0.014026522 -0.027257247 0.0022443347 -0.02909345
000010 fe a8 0a bd 24 8a 68 bc 79 8b ab 3b 5d ff 01 bd
       -0.03385257 -0.014193092 0.0052351323 -0.031737674
000020 28 8a d2 bc 00 ba 50 3b 79 19 09 3d 66 3c a0 3c
       -0.025700644 0.0031849146 0.03347156 0.01956005
000030 0f c5 0e bd a0 27 4b 3d 47 9f 0d 3d 25 c4 cc 3c
       -0.0348559 0.049598336 0.034575727 0.024995873
000040 3e e6 31 bd 60 3e ba 3c f6 d9 2c 3c 5c 22 90 bb
       -0.043432467 0.02273482 0.010550013 -0.004398627
000050 40 bf 65 3a af ba d1 bc c9 9d 6a 3d 09 3e de 3c
       0.0008764155 -0.025601713 0.057279382 0.02712919
000060 b1 d0 b2 3c b6 4e 7d 3a 87 57 4b 3d 13 a6 af bc
       0.021828027 0.0009662913 0.04964402 -0.021441495
000070 55 10 36 3d d3 56 03 bc fc 74 76 bc 2f c5 8b bc
       0.04444917 -0.008016306 -0.01504254 -0.017061798
000080 c6 34 3e bb 41 46 b0 3c 54 e4 eb 3c 4b 0f 80 3b
       -0.0029023155 0.021517875 0.028795399 0.003908073
000090 d8 61 e2 bb a9 42 01 bd 9f 85 86 bc e1 59 f8 bc
       -0.0069086365 -0.031557713 -0.016421137 -0.030316295
0000a0 ac fd 89 bc 32 8f 54 3d 36 a4 f8 bb d1 24 b2 bb
       -0.016844593 0.051894374 -0.007587935 -0.0054365178
0000b0 0d bc 21 bc 49 6e 82 3d f5 75 0a bd b3 86 06 bd
       -0.009871495 0.063686915 -0.0338039 -0.032843303
0000c0 5c a4 a7 bc 4c 69 d9 3b 77 5d ef 3c 32 e6 08 bd
       -0.020464115 0.006634867 0.029219372 -0.033422656
0000d0 c9 fc eb bc 64 b5 00 bc d0 a4 97 bc 27 b5 ba bc
       -0.02880706 -0.007855747 -0.018511206 -0.022791458
0000e0 dd 80 39 3c 2d 82 69 3a bf b7 f1 bc 98 e6 3e 3d
       0.011322227 0.00089076423 -0.029506562 0.04660663
0000f0 4e 9d b1 3c 03 90 4a bd 6b 52 43 3c e2 8f 29 3c
       0.021681454 -0.049453747 0.011921505 0.010349246
000100 59 7b 3b bc ed 2f eb bb 51 6a 36 3c 42 b3 68 bb
       -0.011442983 -0.007177344 0.011133746 -0.0035507237
000110 8c ed c7 bc 7f c8 b2 3c 92 57 23 3d 54 c0 d8 3c
       -0.024405263 0.02182412 0.039878435 0.026458897
000120 99 fa e6 bb 10 a9 13 bc ce 3b e9 bc 9f 31 46 bd
       -0.0070489165 -0.009012476 -0.0284709 -0.048387166
000130 81 79 53 bc 1c 3a 8e 3b b0 dc f3 3c 68 c5 15 bd
       -0.012907387 0.0043404233 0.029768318 -0.036565214
000140 ba 00 14 3d a9 8d 79 bc 56 be 02 bd 1d ca 23 3d
       0.036133505 -0.015231528 -0.0319198 0.039987672
000150 31 75 3b bb 17 1b 24 3b 96 60 72 3d a1 dc 66 3c
       -0.0028603787 0.002504056 0.059174143 0.014090688
000160 d3 ae 50 bc 59 21 06 bd 4f 00 1d bc f7 d0 94 3c
       -0.012736994 -0.032746647 -0.009582593 0.018166048
000170 23 5c 01 bd 50 4d 02 3d 9d 2d b3 bc 48 8b c1 bc
       -0.03158201 0.031812012 -0.021872336 -0.023625985

neck.lateral_convs.1.conv.weight f4 [96, 96, 1, 1]
000000 33 ea a3 3b 8c 92 3b bd 7f c2 31 be 00 05 b1 3d
       0.005002284 -0.045794055 -0.1735935 0.08643532
000010 75 ad 1c be cd 28 1f 3d 9b 28 71 3e b1 6d 08 be
       -0.15300544 0.03885727 0.23550646 -0.13323094
000020 d4 94 4e bd 82 9b ac bb a0 7d 98 bb 0c 1e 6a bd
       -0.050434902 -0.0052675614 -0.0046536475 -0.05715756
000030 d0 f4 4d bd cc d2 bc bd 0f a0 9b bc 2e 7d 0e be
       -0.0502823 -0.09219894 -0.01899722 -0.1391494
000040 52 9d ce 3d dd 17 28 3e 60 f3 16 3e ce cc 4f 3b
       0.100886 0.16415353 0.14741278 0.0031707766
000050 70 cc 9b 3c 95 12 29 3e 8c 42 99 3d a7 cd 17 3d
       0.019018382 0.16510995 0.07483396 0.03706136
000060 4c 04 c3 bd 7f a6 39 3d cc a7 cf 3c c5 38 8d 3c
       -0.09522304 0.0453248 0.025348566 0.017238984
000070 d5 3b e6 bc 9b 91 f3 3d db 7a 3a bd 1e d8 90 bd
       -0.028104702 0.118930064 -0.04552732 -0.07072471
000080 df 88 51 3d e0 19 e6 3d fa 8b f0 bd a3 a4 0c be
       0.05115592 0.11235404 -0.117454484 -0.13734679
000090 ff d5 99 3c 61 35 4d bd d0 86 5b 3e 21 62 37 be
       0.0187788 -0.050099734 0.21438146 -0.17908527
0000a0 82 7f cb bd 36 e4 af 3d 1b c9 f1 3c ba 79 2f bd
       -0.099364296 0.0858845 0.02951484 -0.042840697
0000b0 84 8e 50 bd 7a f5 85 bd ca 74 51 bd 08 0d 34 3e
       -0.050917163 -0.065409616 -0.05113677 0.17583096
0000c0 48 49 34 be 00 ad cb bc 61 70 e8 bb 12 73 ed bc
       -0.1760608 -0.024862766 -0.0070934747 -0.028985534
0000d0 eb 3a 2a 3c 5d 3c f5 bd 9a 97 16 be 5d b0 94 3d
       0.010390024 -0.11974404 -0.14706269 0.07260201
0000e0 0a dd 41 bd 4c d4 a0 3d 61 f9 56 3e c3 b5 3d 3e
       -0.04732994 0.078529924 0.20993568 0.18526368
0000f0 72 8f be bd 50 fb 26 bd 11 b3 ae bd 8f 35 1a 3e
       -0.09304704 -0.040767014 -0.08530248 0.15059493
000100 b3 f4 80 bd f6 a6 62 bd 39 07 02 3c 08 b2 b2 3d
       -0.06296673 -0.055335008 0.007936292 0.08725363
000110 61 17 8e 3d 6f 56 d8 3d 19 c4 b1 bc 18 32 a6 bc
       0.06938053 0.10563361 -0.021699952 -0.020287558
000120 cd c0 1f 3c a5 32 94 bc 0c 22 2a 3d a9 09 50 3e
       0.009750557 -0.018090555 0.041536376 0.20316185
000130 76 cd bb bd eb 43 a5 3d ea 24 1a bd 9e 9d 13 be
       -0.09170048 0.08069595 -0.03763286 -0.14415595
000140 79 29 b9 3c b8 1e a9 3c e5 f1 70 3d 5b b0 2e 3e
       0.022602784 0.02064453 0.05882444 0.17059462
000150 3e c2 1e 3d 6d b4 72 be 30 62 a5 3c 87 29 94 bd
       0.038759463 -0.2370164 0.020188421 -0.07234483
000160 fd 00 5f bd 84 4a 89 3d d3 cf ac bc 90 8c 16 3c
       -0.054444302 0.06703666 -0.021095192 0.009188786
000170 c0 74 65 be c8 8a c3 3d 84 20 54 3d 35 ec 2c bd
       -0.22407818 0.09547955 0.05178882 -0.042217452
000180 eb 63 01 bc 2a 58 0a 3e 91 13 e1 bd c1 c8 61 be
       -0.007897357 0.13510194 -0.1099006 -0.22049238
000190 a8 af a5 bd 7a 81 9f bd a5 90 03 be 5e 1d 81 bd
       -0.080901444 -0.077883676 -0.12848146 -0.063044295
0001a0 db 2a d4 3d 1d ef b6 bc 75 87 2b be 9e 48 14 bd
       0.103597365 -0.022330815 -0.16750892 -0.036202066
0001b0 2e 94 f7 3d d6 a6 11 be 1e d7 0e be 84 10 53 bd
       0.1208881 -0.14223799 -0.13949248 -0.051529422
0001c0 77 7b aa 3d cd e2 98 3c a5 7f cb bd 77 9c 37 bd
       0.0832433 0.018662835 -0.09936456 -0.04482695
0001d0 fb ac b0 bd 5f 96 8c 3b 27 1a 49 3d d6 26 78 bd
       -0.086267434 0.0042903866 0.049097206 -0.06058391
0001e0 0d 82 03 3e dd 17 a9 bc 13 f0 91 bc 6f 35 be 3d
       0.12842579 -0.020641262 -0.017814672 0.092875354
0001f0 9c 02 fb bd 9c 2d d3 3b 2c 82 28 3d 32 fe 12 be
       -0.12256357 0.006444646 0.041139767 -0.1435478
000200 21 1b 16 be 98 64 a0 bd 74 4e a1 bd 63 20 85 3d
       -0.14658786 -0.07831687 -0.07876292 0.06500318
000210 6d 3e 09 3e 54 e5 32 3d 4f df f1 bd 18 ea 93 bd
       0.1340272 0.043675736 -0.11810171 -0.07222384
000220 1e ba 08 3d 2a 0d 68 3e 08 5a 3f be 4c c2 36 bd
       0.03338062 0.22661272 -0.18686688 -0.04461889
000230 af a5 83 3e 02 ff 65 bd 3d 9d 95 be 9a 1c 7e bc
       0.25712344 -0.056151398 -0.29221526 -0.015509749
000240 bf d2 14 bd 60 a1 8b bc 9d da 1b 3e 56 57 0c be
       -0.036333796 -0.017044723 0.15220113 -0.13705191
000250 a4 bf ff 3d 6b c1 16 be 71 b4 37 bd 9b 63 15 bd
       0.124877244 -0.1472222 -0.044849817 -0.036471944
000260 8c 7a 72 3d 84 bc 6f 3d f8 c1 3a bd 85 70 27 bb
       0.0591989 0.058529392 -0.04559514 -0.0025549245
000270 e5 74 a4 bd 13 e6 56 be cd c6 04 3e 78 83 21 be
       -0.08030108 -0.20986204 0.12966461 -0.15772808
000280 f4 39 e6 bd 4b cc d4 3d 9a da d4 bd e8 ff 9f 3d
       -0.112415224 0.10390528 -0.103932574 0.07812482
000290 70 bb 40 3c 95 cb 82 bd 4a b1 f5 bd af 36 a2 be
       0.011763439 -0.063864864 -0.11996706 -0.31682345
0002a0 4e 5a b2 bd c8 2f 8b bc ae 0c 6b 3d ad de 5a bd
       -0.087086305 -0.016990557 0.05738514 -0.053435016
0002b0 a1 df 86 be 1a c9 30 3e 65 f9 97 be bd ba 1b 3e
       -0.2634249 0.17264214 -0.2968246 0.15207954
0002c0 f1 c7 95 39 39 d0 96 bc 38 0c 44 be c8 69 08 3d
       0.00028568463 -0.018409835 -0.19145286 0.033304006
0002d0 f8 e4 35 bd 0c 93 3b 3e e5 ec bc bc a3 83 23 be
       -0.044407815 0.18317813 -0.023062179 -0.15968184
0002e0 59 ee 94 3d f6 38 bc bc 25 7b 29 3d 82 0f b9 ba
       0.07272024 -0.02297638 0.041377205 -0.0014119002
0002f0 b0 07 e4 3b b8 cb c3 bd 1b ed be bd 7f 2e c4 bd
       0.0069589242 -0.09560341 -0.09322568 -0.09579181
000300 20 09 dd bd 11 5a 32 3d 61 f3 d9 bc b6 3c be 3c
       -0.10792756 0.043542925 -0.02660531 0.023222309
000310 d7 28 f9 bc ec ec 39 3d ea 62 19 bd 50 a6 69 be
       -0.030414982 0.045391962 -0.037447847 -0.2281735
000320 4c e0 da 3c e9 f9 5f 3b 29 f6 15 be f5 c2 b0 3d
       0.026718281 0.0034176058 -0.14644684 0.08630935
000330 47 c5 b5 bd d9 93 db bd 9d a3 3a 3e e3 eb cf bc
       -0.08875518 -0.10721559 0.18226476 -0.025381034
000340 2c 16 1d 3b ed c7 2f be 3e bf 3a 3e 23 ce 8f bd
       0.0023969514 -0.1716611 0.18237016 -0.07021739
000350 ca e9 6c 3d bb e8 8c bc f0 e6 63 3c 63 13 9e bd
       0.057840146 -0.017200818 0.01391004 -0.077185415
000360 02 f5 b1 3d 71 49 55 3a 39 ed 29 3c fb ea 8d be
       0.0868931 0.0008136249 0.0103715 -0.27718338
000370 2e 7e 7f be ff ab 40 bd 2f 4f 30 bd 87 18 81 bc
       -0.24950477 -0.04703903 -0.043044265 -0.015758766
000380 37 c0 8a 3b d4 a8 2e 3c 7c c2 89 39 1e 08 23 3d
       0.0042343396 0.010660369 0.00026275578 0.039802663
000390 13 7b 31 3e 6f 63 dc 3c 2e 24 f4 3c 69 3e 80 bd
       0.17332105 0.026902882 0.029802408 -0.06261904
0003a0 76 1d bd bd d7 88 ac 39 1b 92 28 3e ae bb 62 bd
       -0.09234135 0.0003290835 0.16461985 -0.055354767
0003b0 4b 6e 5e bd f2 04 6c bd fe 0a 4e 3e 47 d6 14 3e
       -0.054304402 -0.057621904 0.2012138 0.14534865
0003c0 6c 90 36 3d bc 51 9b 3c 38 4c 84 3d ae e5 8c 3d
       0.044571325 0.018959872 0.0645985 0.068797454
0003d0 7b bb af 3d bc a4 04 3c 0a 59 10 bc 12 eb 8b bd
       0.08580681 0.008095916 -0.008810291 -0.068319455
0003e0 aa 37 06 be d9 66 84 bd e2 61 50 bd c2 40 b9 bc
       -0.13107172 -0.06464929 -0.0508746 -0.022613887
0003f0 69 27 d5 bd ee 86 6b bc ab fb ab 3d d0 72 39 be
       -0.104079075 -0.014375431 0.08397611 -0.18110204

neck.lateral_convs.1.conv.bias f4 [96]
000000 55 d2 87 bc b3 ba e5 bc 8f 46 8e 3b af 88 01 bd
       -0.016579786 -0.028043127 0.0043419073 -0.031624492
000010 05 f2 0b bd 3e d7 d7 bc 4f 6b be bb 85 1c 09 bd
       -0.034166355 -0.026347753 -0.005811132 -0.033474464
000020 e8 9f de bc d3 1f d1 3b c7 61 19 3d 94 3b c9 3c
       -0.027175859 0.0063819676 0.037446763 0.024564542
000030 75 62 11 bd 8f 2d 39 3d ac 61 03 3d 06 2c d3 3c
       -0.035494287 0.045209464 0.03207557 0.025777828
000040 2b 1b 02 bd ce 4c 11 3d 20 13 57 3c 7d 75 d8 bb
       -0.03176419 0.035473637 0.013127118 -0.0066058026
000050 91 f8 94 b9 bf be 8c bc 78 f6 87 3d 32 bb fa 3c
       -0.00028413956 -0.017180799 0.06638807 0.03060684
000060 36 e4 96 3c c4 8d a5 3b f7 cd 83 3d ec a4 e6 bc
       0.018419366 0.0050523 0.06435769 -0.028154813
000070 e3 aa 23 3d 49 64 3a bc 97 4a 66 bc a8 81 bc bc
       0.039957892 -0.011376449 -0.01405587 -0.023011044
000080 59 d8 0a bc 37 79 b4 3c 4d 7f e1 3c 59 c9 32 3c
       -0.008474433 0.022030456 0.027526522 0.010912263
000090 1b a1 e8 bb 91 7f 25 bd bd bd 47 bc 81 69 cd bc
       -0.0070992834 -0.04040486 -0.012191233 -0.025074722
0000a0 d4 60 a6 bc 8f 9a 75 3d ed 3c d0 bb 15 53 a7 bb
       -0.020309843 0.05996185 -0.006354919 -0.0051063397
0000b0 e4 c0 e8 bb 48 0c 88 3d ac 05 0d bd 52 6c a9 bc
       -0.0071030725 0.066429675 -0.034429237 -0.020681534
0000c0 cf 1c 98 bc ea c7 be 3b 2e b6 eb 3c 27 56 00 bd
       -0.018568425 0.0058221715 0.028773393 -0.03133216
0000d0 8f 6c 8f bc 57 e6 96 bc aa 4b ac bc cb 53 bb bc
       -0.01750782 -0.018420381 -0.021032173 -0.022867104
0000e0 2b 20 a0 3b 48 2b 67 3b f2 03 ff bc 58 4a 3e 3d
       0.004886647 0.00352736 -0.031129811 0.04645762
0000f0 64 ef d4 3c 11 4d 6a bd 79 fc e9 3b 4c 53 d9 3b
       0.025993057 -0.057202403 0.007140693 0.006632244
000100 84 8e 74 bc 82 de 81 bb bf 07 89 3c 44 9e b1 bb
       -0.0149265565 -0.0039632926 0.016727326 -0.005420478
000110 fc c7 06 bd 6e 1f b1 3c 5a 58 24 3d db 1b 79 3c
       -0.032905564 0.021621432 0.04012332 0.015204395
000120 5a 2e d2 bb 67 46 1d bc a5 e8 f0 bc 2f c5 44 bd
       -0.006414217 -0.009599305 -0.029407809 -0.04803961
000130 26 80 d7 ba f7 e6 99 3c 43 95 fa 3c 8a b4 21 bd
       -0.001644139 0.01878689 0.030588752 -0.039478816
000140 9f 4f 1e 3d 75 38 6a bc a1 a5 0e bd 99 b9 24 3d
       0.03865015 -0.014295687 -0.034825925 0.040216062
000150 80 3e 53 bb 75 92 6e 3a 85 18 0d 3d dd 4f 79 3c
       -0.0032233298 0.0009100803 0.03444721 0.015216795
000160 76 d9 55 bc 65 c3 3a bd 32 2d b3 bb 29 6f c1 3c
       -0.013052335 -0.0455965 -0.005468034 0.023612576
000170 fe 2a 01 bd a4 74 02 3d 67 d9 bb bc 2d ef c0 bc
       -0.03153514 0.03184952 -0.022930814 -0.023551548

neck.lateral_convs.2.conv.weight f4 [96, 192, 1, 1]
000000 33 72 08 3c ce 16 dd bd 26 29 fe 3d 82 cf f3 bc
       0.008328008 -0.10795365 0.12410192 -0.029762033
000010 89 a8 9a ba 13 b3 ef 3d 21 b0 65 bd 46 66 56 3c
       -0.0011799495 0.117040776 -0.056076173 0.013085907
000020 95 4e 70 bd af 28 0d 3e 04 91 00 3d db e3 a7 bc
       -0.05866869 0.13785051 0.031388298 -0.020494392
000030 96 22 fc 3d b0 db 62 3c 13 6b d3 bd 05 cb 99 3c
       0.12311284 0.013846323 -0.10323157 0.018773565
000040 3a 6b 70 3d ee 6b 9f be 98 bf d4 bd 02 74 06 be
       0.05869601 -0.3113703 -0.10388106 -0.13130191
000050 d7 a4 4a 3d 91 e9 c8 bd b9 26 dd 3d 1c 8c 0b 3d
       0.04947361 -0.09810174 0.107984014 0.034069166
000060 96 db 4d 3d 75 e8 3a be 92 6d 19 be a6 a3 93 3c
       0.05025824 -0.18252738 -0.14983204 0.01802237
000070 37 d3 82 bd a6 0d 4b 3c 9e 2f 87 bd be 02 17 be
       -0.06387942 0.012393391 -0.06600879 -0.1474714
000080 76 bc 54 3e c6 f3 06 be d1 02 90 bd db 80 b4 3d
       0.20775017 -0.1317893 -0.07031787 0.0881364
000090 21 c6 d8 bc 19 b1 49 3e d8 58 f8 3d 52 c1 09 bd
       -0.026461663 0.19696464 0.121263206 -0.03363163
0000a0 77 84 6a 3d dc 94 31 be d1 83 b2 3d 35 12 0e 3d
       0.057255235 -0.17341942 0.08716548 0.034685332
0000b0 3b db 4a bd d8 0f 82 3d 84 59 8c bd 1a 87 61 3e
       -0.04952548 0.06350678 -0.06853011 0.22024193
0000c0 f8 23 83 bc e1 59 1c bd d9 c6 e4 3d 57 07 a9 bd
       -0.016008362 -0.038171653 0.1117074 -0.08253353
0000d0 03 2b a4 3d e3 a6 74 3e b6 95 fd bd c9 7e 88 3c
       0.08016016 0.23891787 -0.12382071 0.016662018
0000e0 c4 85 aa 3d 76 fb 9d bd d9 f4 80 bd bc dc 3b be
       0.08326295 -0.07713978 -0.06296701 -0.18345922
0000f0 92 b2 9f 3d 3d 8d 6b 3c a1 62 65 3d e0 b0 1f be
       0.077977315 0.014376936 0.056002263 -0.15594816
000100 ff 8f 27 3d 44 d4 8b bd 72 33 1e be fe d5 cc 3d
       0.04090881 -0.06827596 -0.15449312 0.10001753
000110 72 b8 50 bd a7 b0 df bb 03 1e ca bd e1 09 a4 3e
       -0.05095715 -0.0068264785 -0.098690055 0.32038787
000120 98 44 50 be 00 95 46 be 0a 78 9f 3d 41 ea db 3d
       -0.20338666 -0.19392776 0.077865675 0.1073804
000130 d2 8c 31 3d 4f d3 83 bd e7 89 51 bd 64 b6 e2 bb
       0.043347187 -0.06436788 -0.051156905 -0.0069187153
000140 61 25 f3 3d a4 0e a8 3c 35 57 96 3d eb 46 5e bd
       0.11872364 0.020514794 0.07340852 -0.05426685
000150 3c 1c dd 3d c4 fd b2 bd 66 50 f1 bc 4a 52 05 3d
       0.10796401 -0.08739808 -0.029457282 0.03254918
000160 0a 83 4f 3d 94 dd 23 be 6b 52 c9 bd f4 7a 84 3c
       0.050662078 -0.16002494 -0.09830173 0.01617191
000170 84 2a cc 3c cf 59 b7 3d aa a6 ee 3d c9 a8 35 3d
       0.024922617 0.089526765 0.116528824 0.04435042
000180 ac 2e d8 bb 4b de 1d bd 67 bf 75 bc 01 aa 08 be
       -0.0065973606 -0.038542073 -0.014999247 -0.13346101
000190 1b 70 5e 3d 10 20 82 bd fa 8b 14 3b 07 97 ab 3d
       0.05430613 -0.06353772 0.002266644 0.083784156
0001a0 cd eb 31 3d 09 f9 a1 3d e3 fa 11 bd ea 91 bf bd
       0.043437768 0.07908828 -0.035639655 -0.09354003
0001b0 90 22 f5 3b d1 da 8a 3c 48 f3 b2 bd cb e2 5d bd
       0.007480927 0.016950043 -0.087378085 -0.054171365
0001c0 69 0f 1f 3d 3c 99 fd bd f1 28 a0 3d 47 c0 4a bd
       0.038833056 -0.12382743 0.07820309 -0.049499776
0001d0 45 26 68 3d b1 fc 88 bc 12 0b ff bc fd c4 ae bc
       0.05667712 -0.016722055 -0.031133208 -0.021334166
0001e0 b7 ea 76 3b 9f b6 92 bd ff 24 8b 3d bd a4 21 3d
       0.0037676522 -0.071637385 0.06794166 0.039463747
0001f0 10 7f aa 3d 68 90 c9 3d 82 dc f7 3d 1c 58 48 3d
       0.083250165 0.098419964 0.121026054 0.048912153
000200 36 18 6a bd 4b cc 50 bc b9 ed 80 3c f0 a8 67 3e
       -0.057151996 -0.01274402 0.015738355 0.22623038
000210 74 e2 e5 3d fb d0 2d be 6b 30 98 bd 5b 61 aa bd
       0.11224833 -0.16974251 -0.0743111 -0.0831935
000220 f4 f1 8a 3b 62 50 13 bd b1 17 1f 3d 1f 72 b9 bc
       0.004240269 -0.03596533 0.038840953 -0.022637425
000230 6b d2 f0 3c 9d 21 7b 3e 9f 26 0b 3d 19 5b 19 3e
       0.02939721 0.24524541 0.03397238 0.14976157
000240 4d d3 1b bd 64 dc 95 bd 42 a0 22 bd ca e0 b1 3d
       -0.03804331 -0.07317427 -0.039703615 0.08685453
000250 3a 7f b2 3c 20 07 25 bc 80 5a dc bd 8a 8d e4 3c
       0.021789182 -0.0100724995 -0.10759449 0.027899522
000260 85 6f 0a 3e fa f6 a3 bd 50 6b cc bd 60 d5 56 bd
       0.13519104 -0.080060914 -0.09981406 -0.052449584
000270 a9 e1 87 bc 2a 7e 6e bd 47 cb 21 be ae a1 03 bd
       -0.016587095 -0.05822579 -0.158002 -0.03213661
000280 d1 da a3 bd 5d 2e 22 3e 3b 80 41 be 37 db 55 3d
       -0.0800072 0.15837999 -0.18896572 0.052211013
000290 12 f6 3a 3d 17 67 11 3e 52 25 20 3e 43 3e b1 bd
       0.045644827 0.14199482 0.15639237 -0.086544536
0002a0 bc a7 24 be 88 42 ac 3c 38 d9 98 bd 1d c4 bc 3d
       -0.1607961 0.021027818 -0.07463306 0.09217093
0002b0 b1 40 00 3d bc bc bf 3d b4 c8 c3 bb 88 fe 84 bc
       0.031311695 0.0936217 -0.0059748534 -0.016234651
0002c0 27 71 09 bc 91 79 27 be 8c c1 57 3e e7 58 2c 3d
       -0.008388794 -0.16354968 0.21069926 0.04207697
0002d0 8e 39 30 3d 32 ee f0 bc ed 36 41 3d 98 6f 67 be
       0.04302364 -0.029410455 0.047171522 -0.22601163
0002e0 a1 bd 99 3c 23 73 7d 3d bd a2 d6 bd 21 4a 9b bd
       0.01876718 0.06187738 -0.104802586 -0.07582498
0002f0 2d f7 05 3e c1 5f 7a 3d 08 8e 69 bb 27 7a c8 3d
       0.13082571 0.061126474 -0.0035637636 0.09788924
000300 d4 94 8b bd 76 1a ed 3c 1e 0a 34 bd f4 15 fc 3c
       -0.06815496 0.028943282 -0.04395496 0.030772187
000310 d1 08 9a bd e1 58 50 3a 4f 94 1b bc 26 82 02 3d
       -0.07521213 0.00079478143 -0.009495809 0.0318624
000320 87 25 6e 3d 21 ee dd 3c f0 2b 81 3c 4d 3c 3c 3b
       0.058141258 0.027091088 0.015768021 0.0028722466
000330 a6 22 c6 bd 2f f9 48 3e 71 15 cf 3c 09 50 d4 bd
       -0.096745774 0.19626306 0.025278779 -0.10366828
000340 70 70 33 be bd 2f 8d ba 01 71 22 be b8 85 e8 bd
       -0.1752336 -0.0010771673 -0.1586342 -0.1135363
000350 7e 13 d7 bd 6d 6e 10 bd ea 21 ad 3d 86 2c 00 3e
       -0.10501765 -0.03526156 0.08453734 0.12516984
000360 d3 3c 7d 3e 14 bc 8b 3d ed cf a6 bd 63 1d c6 bc
       0.24730234 0.068229824 -0.081451274 -0.024183935
000370 e3 f8 22 3e b1 6d 10 be 0a d6 b2 bc 1e ab 6b 3d
       0.15915255 -0.14104344 -0.021830577 0.057536237
000380 c3 b8 d3 3d 2b e3 db 3d 12 a3 95 bd f1 9d 98 3d
       0.10337975 0.10736688 -0.07306494 0.07452
000390 17 e7 a2 bc 84 9b 26 bd 23 98 87 bd 74 b4 1d 3e
       -0.019885583 -0.040675655 -0.06620815 0.15400869
0003a0 cf 6f 0b be 9c 56 ef 3d db ba c9 bd 21 c3 d6 bd
       -0.1361687 0.11686441 -0.09850093 -0.10486437
0003b0 c7 8a 94 bd 66 91 49 3d fe e0 c1 bd e1 c3 9f 3d
       -0.07253032 0.04921093 -0.09466742 0.07801033
0003c0 b9 48 aa 3d 1b 0e 2a 3e 2d 01 65 be 76 fe a1 bd
       0.08314652 0.16606943 -0.2236373 -0.07909863
0003d0 38 aa fd bb 99 c1 33 bd fa 2a 1a bd 5d 30 4b bd
       -0.007741239 -0.0438858 -0.037638642 -0.04960667
0003e0 ee 82 8d bd 75 b5 33 3e ca e7 28 bd 9e 65 95 bd
       -0.069097385 0.17549689 -0.041236676 -0.072947726
0003f0 0e 73 fa 3a 09 60 86 3d 31 2d 2d be 7d 84 73 bd
       0.0019107775 0.06561286 -0.1691177 -0.059452523

neck.lateral_convs.2.conv.bias f4 [96]
000000 2b ba 58 bc 6a 13 e4 bc 29 f9 99 3b 9f 2e fb bc
       -0.01322798 -0.027841289 0.0046988917 -0.03066188
000010 1d 5c 0a bd 4c 38 f0 bc c1 db 27 bc e1 4d 11 bd
       -0.033779252 -0.02932372 -0.0102452645 -0.03547466
000020 c0 15 f2 bc 41 e9 c3 3b 48 40 23 3d c2 4a cb 3c
       -0.029551387 0.0059787338 0.039856225 0.02481592
000030 bf 88 0c bd 78 24 37 3d 38 b5 fd 3c 6f 07 cf 3c
       -0.0343101 0.044712514 0.0309702 0.0252721
000040 e3 90 f0 bc 96 7f 14 3d a4 f0 6d 3c 3c 77 15 bc
       -0.029365962 0.036254488 0.014522705 -0.009122666
000050 e2 57 59 b9 45 e8 82 bc 31 cc 85 3d be b2 03 3d
       -0.00020727472 -0.015979895 0.06533087 0.032152884
000060 d4 2f 95 3c 0d 0e 96 3b b4 31 84 3d fa 6f c4 bc
       0.018211283 0.0045793117 0.064547926 -0.023979176
000070 89 4b 28 3d ff 49 39 bc df 73 62 bc 5f 5c ce bc
       0.04108766 -0.011309146 -0.013821571 -0.02519053
000080 63 a3 83 bc 1f f5 b2 3c 75 d5 f2 3c e3 15 6c 3c
       -0.01606912 0.021845398 0.0296428 0.014409515
000090 2b 4e 09 bc 06 69 30 bd 22 ad 3b bc 03 e8 cd bc
       -0.008380453 -0.04306891 -0.011454852 -0.025135046
0000a0 f1 49 9c bc 85 ee 78 3d 29 41 c8 bb 44 86 74 bb
       -0.019078227 0.060774345 -0.0061112833 -0.0037311474
0000b0 c8 81 ce bb 00 f7 92 3d 3b 87 0a bd c0 69 a6 bc
       -0.006302092 0.07176018 -0.033820372 -0.020314097
0000c0 da bd 99 bc 57 6a b1 3b 71 0e f4 3c 46 c4 02 bd
       -0.018767286 0.005414288 0.029792042 -0.031925462
0000d0 fb 6b 85 bc ee 30 99 bc cb af b8 bc 50 86 b9 bc
       -0.01628684 -0.01870009 -0.022544762 -0.022647053
0000e0 4d 4b 89 3b 24 6f 0a 3b c7 c0 01 bd 0a c8 39 3d
       0.0041898848 0.0021123374 -0.031677987 0.045356788
0000f0 c7 b2 d7 3c a9 19 6b bd 6f af ea 3b b7 ca ae 3b
       0.026330365 -0.05739752 0.0071620266 0.005334224
000100 10 29 6f bc 89 dd 87 bb eb a3 bb 3c 05 b2 fb bb
       -0.014597192 -0.004146282 0.02290531 -0.0076811337
000110 79 c6 0f bd 31 cc b0 3c 45 ac 1c 3d 41 d8 5d 3c
       -0.035101388 0.021581741 0.038250227 0.0135403285
000120 51 a8 c9 bb 14 9b 17 bc a8 07 f4 bc 50 c9 47 bd
       -0.006154098 -0.009253282 -0.029788807 -0.04877597
000130 e4 e7 31 3a 02 8d 9c 3c 1b d1 f5 3c ef 00 20 bd
       0.00067865686 0.019110207 0.030006936 -0.03906339
000140 2a a8 24 3d 63 2e 5f bc 31 4b 10 bd 08 0f 27 3d
       0.040199436 -0.013621899 -0.035227958 0.04078582
000150 a6 ae 63 bb 85 ff 94 3a 6f ec 13 3d b5 0a 77 3c
       -0.003474155 0.0011367655 0.036114153 0.015078236
000160 ad 7b 6d bc 0d c4 3e bd 9d 4b a8 bb 9b 42 c8 3c
       -0.014494819 -0.046573687 -0.005135967 0.024445822
000170 89 1e ff bc 35 f7 00 3d d2 4d c4 bc 0e c6 c0 bc
       -0.03114249 0.031485755 -0.023962889 -0.02353194

bbox_head.conv_heads.0.2.weight f4 [39, 96, 1, 1]
000000 43 bf c4 3c b1 7d 2d be 33 35 1e be d3 f7 2c 3c
       0.024016982 -0.16942479 -0.15449981 0.010557133
000010 0b 8a 32 be 56 e0 be bd f9 ba d9 bd 59 e8 ed 3c
       -0.17435472 -0.093201324 -0.10631365 0.029041456
000020 66 d4 15 be 35 e3 47 3d f1 9c 96 bd 93 34 0b be
       -0.14631805 0.048800666 -0.07354153 -0.13594274
000030 a9 5f 31 bc 19 72 dd ba 99 2d 17 bd 66 72 b6 3c
       -0.01082603 -0.0016894966 -0.03690872 0.022271346
000040 17 a7 20 3d 87 f3 22 be 1d 71 17 be 8b 74 ff bd
       0.03922185 -0.15913211 -0.14789243 -0.12473401
000050 f8 0f 60 bd 9a ba 8a 3d e6 80 11 be 0c d8 cd bd
       -0.05470273 0.06773873 -0.14209327 -0.10050973
000060 4d b7 8e bd 3a e9 2f be 3f b1 9b bd 62 82 80 37
       -0.069685556 -0.17178813 -0.076021664 1.5319503e-05
000070 78 8b 1a be 6b 8c 8b 3d 4d de 93 bd cc 2f 0f 3d
       -0.15092266 0.06813892 -0.07220135 0.034957692
000080 24 0d 3a bd ce dc 1e be e0 fc 27 bd 83 d5 52 bd
       -0.045422688 -0.15513918 -0.041012645 -0.051473152
000090 d2 3c 31 3d 93 d2 0f be 1a b1 d7 3c 71 bb 22 be
       0.043270893 -0.14045171 0.026329566 -0.15891816
0000a0 18 63 ef bd 52 df e7 bd 5b db e8 bd 3e 46 96 bb
       -0.116888225 -0.11321892 -0.11369964 -0.0045860102
0000b0 c5 c9 04 3d 34 6a 11 bd cf 3a 23 3d 9e a1 35 3c
       0.032418985 -0.035501674 0.039851006 0.011085896
0000c0 07 e4 bd bc fa f6 0c be d5 93 0f be 78 c1 69 bd
       -0.023180021 -0.13766089 -0.14021237 -0.05706927
0000d0 4d 91 75 bd 68 48 6e bd 21 4c f7 bc ae 8a 99 bd
       -0.059953023 -0.05817452 -0.030187668 -0.07497154
0000e0 c5 1b 79 bd 8e ef af bd 8e 02 15 3b 67 4b 13 be
       -0.0608175 -0.08590613 0.0022737118 -0.14384232
0000f0 44 c5 05 bd 63 7f 66 bd 03 5d 02 bd 21 7d 15 be
       -0.03265883 -0.05627383 -0.031826984 -0.14598514
000100 41 7b 19 be e5 6b 83 bd 17 60 62 3c a3 76 fb 3c
       -0.14988424 -0.064170636 0.013816855 0.030696219
000110 8d 47 75 3a 77 2a 44 bd 9c 65 fc bd 47 2f 0f be
       0.000935667 -0.04789206 -0.12324068 -0.13982879
000120 b8 7b f3 bd 66 74 0c bc 7e de 50 bd 53 5b d5 bd
       -0.11888832 -0.008572673 -0.050993435 -0.10417809
000130 79 80 82 3d 2d 57 a9 bc 21 38 b2 3c 11 11 28 be
       0.063721605 -0.020671451 0.02175528 -0.1641276
000140 dc 72 c3 bd da 52 12 be 71 81 f0 3c 51 61 5e bc
       -0.09543392 -0.14289418 0.029358597 -0.013573007
000150 78 2e 02 be 61 64 6c bd 86 00 93 3c 0f 05 85 bd
       -0.12713039 -0.057712916 0.017944586 -0.064951055
000160 80 b7 0a be 4c a0 a1 bd f3 cd d8 bd 0c b3 05 be
       -0.13546562 -0.07891902 -0.10586157 -0.13056582
000170 db dc e8 bd 16 68 d4 bd 4f bc af 3c bc b9 24 bd
       -0.1137025 -0.10371415 0.021452097 -0.040216193
000180 0b d2 53 3d 68 0c a1 bd 31 91 61 bc ce 2e 45 bd
       0.051713984 -0.078636944 -0.0137675265 -0.04814034
000190 04 23 8c bd dc a1 a6 bd 32 74 26 be 8a c8 01 3d
       -0.06842616 -0.08136341 -0.16255262 0.03168539
0001a0 63 53 26 be 40 63 0f be f8 c7 b6 3c 2f 1c 24 be
       -0.16242747 -0.14002705 0.02231215 -0.16026376
0001b0 10 8d 49 bd c0 3e b7 bd 04 df 39 bc 23 04 29 bd
       -0.049206793 -0.089475155 -0.011344675 -0.04126371
0001c0 c0 e7 89 3d 03 ee cc bd 04 28 cf bc d0 7b f4 bd
       0.06733656 -0.10006335 -0.025287636 -0.11937678
0001d0 42 61 02 3d ad 70 80 3c ba e3 d0 bd da 93 f6 bd
       0.031831034 0.015678728 -0.101996854 -0.12039919
0001e0 fd c3 cb bd 95 24 f6 bb db d5 2a be f2 c4 e4 bc
       -0.09949491 -0.007511685 -0.16683142 -0.027925942
0001f0 a7 4e 06 be fd b3 7e bd 4b 09 2f be 04 9e 72 3c
       -0.13115941 -0.06218337 -0.17093389 0.014808182
000200 a6 ed dd bd c3 5f 0c bd 5a 78 ca bd 64 4b 81 bd
       -0.108363435 -0.034271013 -0.098862365 -0.06313208
000210 d1 72 82 bd cf a6 14 be 3f e1 b8 bd 7b 89 b6 bd
       -0.06369556 -0.14516757 -0.09027337 -0.08912941
000220 4e 85 19 be 13 72 3a bd 43 28 fc bd 3d 92 15 be
       -0.14992258 -0.045518946 -0.12312367 -0.14606567
000230 8d 55 f4 bd 37 25 a8 bc 2b eb ab bc 0d 93 76 3c
       -0.1193038 -0.020525558 -0.02098616 0.015049708
000240 58 a5 f8 bd a7 33 2e be 32 b4 61 bd 22 b4 40 bc
       -0.12140912 -0.17011891 -0.05510349 -0.011761697
000250 51 1a b3 bd 0d a3 f5 bd 52 08 33 be 73 9d 16 be
       -0.08745254 -0.1199399 -0.17483643 -0.147085
000260 3d b9 0c be 99 45 9f bd 37 dd 54 bd a0 46 e5 bd
       -0.13742538 -0.077769466 -0.05196878 -0.11195111
000270 5e 2d 12 be 2b 05 35 3d 30 90 2c bd c2 6e e3 bd
       -0.14275119 0.04419438 -0.042129695 -0.1110511
000280 3d 25 48 bd 02 ea e8 bd 84 0c fc bd 65 81 01 bd
       -0.04886364 -0.113727584 -0.12307075 -0.03161754
000290 c6 34 a3 bd fe 7c 03 3d e1 db f7 bd a0 0a 84 3d
       -0.0796905 0.032101624 -0.121024854 0.06447339
0002a0 29 47 03 bd 86 72 fd bc 44 81 de bd e3 22 1f bc
       -0.032050285 -0.030938398 -0.10864499 -0.0097129075
0002b0 98 7b 30 3d 8a 7d 2c bc 98 52 be bd c9 16 00 be
       0.04308662 -0.010527978 -0.09293097 -0.12508692
0002c0 10 d9 f2 bc 92 31 21 be 59 be b1 bd 90 2e 1f be
       -0.02964452 -0.15741566 -0.08678884 -0.15545106
0002d0 37 67 1e be 2a 0c 56 bd 3b 7e e8 bc 22 1b e1 bc
       -0.15469061 -0.052257694 -0.028380504 -0.027478758
0002e0 93 0c 30 be b3 90 85 3c f1 2a 16 be a3 e3 1b 3d
       -0.17192297 0.01630435 -0.14664818 0.03805889
0002f0 d5 93 05 be 85 39 78 3a 15 11 01 be 1c c4 99 bd
       -0.13044675 0.00094690203 -0.12604173 -0.07508108
000300 f1 c8 7c bc e2 05 3a be 62 09 97 3b 69 cd 7e bd
       -0.015428768 -0.18166307 0.004609273 -0.062207613
000310 5a c9 fc bb 29 78 7b bd d7 36 49 3c 29 07 98 bc
       -0.0077144327 -0.06139389 0.012281141 -0.018558102
000320 8e 2f c7 bd 7e 7a 5b bc fb cd 1b be 10 0e 74 bd
       -0.09725867 -0.013395904 -0.15215294 -0.059583724
000330 69 a8 26 be 3b 3b 65 3c d6 76 e5 bd d7 ae f1 bd
       -0.16275181 0.013991172 -0.11204307 -0.11800926
000340 a0 d8 96 bd a0 b2 21 be ad 7e 30 be fc 57 24 bd
       -0.07365537 -0.15790796 -0.17235823 -0.04012297
000350 9b 1f f3 bd 02 c3 7c bd e1 26 f5 bb 1c 10 b1 bc
       -0.11871263 -0.06170941 -0.0074814414 -0.021614127
000360 b1 c7 a7 3b 47 e4 ee bd 0f 04 5c bd 79 c8 f3 bd
       0.0051202406 -0.11664634 -0.053714808 -0.119034715
000370 3d e5 5b bd b8 99 eb 3b 23 cb 22 be 31 1e 1a bd
       -0.053685416 0.0071899556 -0.15897803 -0.03762645
000380 ee b1 66 bd 71 07 b3 bb 0f 3c 03 be 5c 6a 80 bc
       -0.05632203 -0.0054635336 -0.1281588 -0.015675716
000390 67 32 03 3d ea 32 1c bd 3a be 05 be 78 fa b3 bc
       0.03203049 -0.038134493 -0.13060847 -0.021970019
0003a0 2b b0 77 bc 7b 50 ae bd 58 d9 06 be d7 38 38 be
       -0.015117685 -0.08511444 -0.13168848 -0.17990433
0003b0 84 e5 9b bd 34 99 05 be 64 37 98 bd 50 99 04 be
       -0.07612136 -0.13046724 -0.0743244 -0.12949109
0003c0 ab 56 ba bd 15 c1 31 be 2a 9e 1b bd 31 f3 3d 3c
       -0.09098562 -0.17358811 -0.037992634 0.011593626
0003d0 56 b8 a3 bd f0 44 13 be 04 40 e2 bd d7 72 a7 bd
       -0.07994144 -0.14381766 -0.11047366 -0.08176201
0003e0 82 6e b6 bc 78 9a 30 bd b3 a4 a6 bd 47 94 d5 3c
       -0.022269491 -0.043116063 -0.08136883 0.02607168
0003f0 13 64 71 bd d8 94 a8 bd f2 04 24 be 24 f5 18 3c
       -0.05893333 -0.08231515 -0.16017511 0.00933579

bbox_head.conv_heads.0.2.bias f4 [39]
000000 07 3e 16 be ed 8d 16 bc 73 a6 bf bd 85 96 1b be
       -0.14672099 -0.009189111 -0.093579195 -0.15194137
000010 73 1c fa bd c9 19 a2 bb b8 96 e7 b9 0d d8 01 3d
       -0.122124575 -0.0049469215 -0.00044172048 0.031700183
000020 63 4f ba 3d c2 24 1a 3e c8 2d 07 3d 92 d2 39 bd
       0.09097173 0.15053084 0.033002645 -0.04536683
000030 59 1d 99 bd 63 cc 40 bd 19 9f 9a 3c 0b a5 84 3c
       -0.07476301 -0.04706992 0.018874692 0.01619198
000040 d9 4c 80 3d e6 d3 62 bc cd 7c 2b 3e 70 e6 0e 3d
       0.062646575 -0.013844466 0.16746826 0.03488773
000050 41 87 2a bd 1d fb b9 bd f4 76 01 3d 61 29 da 3d
       -0.041632894 -0.09081099 0.031607583 0.10652424
000060 e7 25 8a 3c 50 26 45 bc 78 ed a9 3c fe 5d dc bc
       0.016863776 -0.01203306 0.020743117 -0.026900288
000070 21 1d b0 bc 20 11 b9 bc 7f 0a 94 bd ad dc 43 3d
       -0.021498265 -0.022591174 -0.072285645 0.047817875
000080 17 84 ed 3c 27 f3 d4 3d b5 a6 b0 3d 11 8d d0 3a
       0.02899365 0.1039794 0.08625547 0.0015911182
000090 59 51 32 3d eb 42 35 bd ff b2 88 b9
       0.04353461 -0.04425327 -0.00026073304

bbox_head.integral.project f4 [8]
000000 00 00 00 00 00 00 80 3f 00 00 00 40 00 00 40 40
       0.0 1.0 2.0 3.0
000010 00 00 80 40 00 00 a0 40 00 00 c0 40 00 00 e0 40
       4.0 5.0 6.0 7.0

1194 f4 [24, 3, 3, 3]
000000 64 28 14 3d b0 2f 41 3d 5b e6 fb 3c 6e 0c 3e 3d
       0.036171332 0.04716462 0.03074949 0.046398573
000010 c8 7e 30 3d ef 4c 29 3d 17 fc 3d 3d 25 93 3d 3d
       0.043089658 0.041333135 0.04638299 0.046282906
000020 e3 23 3c 3d 4d ab b4 bb da 29 c9 bb 2f 02 8b bb
       0.04593266 -0.0055135847 -0.0061390223 -0.0042422037
000030 8b 6f 75 bb 5f 0a 9c bb 30 d9 92 bb 63 10 c1 bb
       -0.0037450518 -0.0047619785 -0.004481457 -0.005891846
000040 c3 3a 95 bb 3a 34 33 bc 86 2d 1a bd f5 8d 52 bd
       -0.004554124 -0.010937745 -0.03764107 -0.051404912
000050 1a 18 0f bd a0 ed 25 bd c3 8c 38 bd c6 90 1b bd
       -0.034935094 -0.04050982 -0.045056116 -0.037979864
000060 d8 ce 26 bd c0 b9 23 bd 4e 36 22 bd bb 4e cd 3b
       -0.040724605 -0.039972067 -0.03960257 0.006265489
000070 a6 4e 35 3c cf d4 07 3c ed ce f5 3b 8c b5 2e 3c
       0.0110661145 0.008290484 0.007501474 0.010663401
000080 11 47 14 3c d8 eb 24 bb ee ed 95 3b 09 66 c4 37
       0.009050147 -0.0025164988 0.0045754826 2.3412535e-05
000090 b1 29 8a 3c bf 32 c2 3c c8 bf aa 3c ce 29 8c 3c
       0.016865583 0.023705838 0.020843402 0.017109778
0000a0 72 8c ac 3c 30 2a 9a 3c e2 33 98 3b 26 61 3d 3c
       0.021063063 0.018818945 0.004644857 0.0115588065
0000b0 ac 4d b7 3b 9f c0 4a 3b 78 f9 ee 3b be 30 b9 3b
       0.005593976 0.0030937565 0.0072929226 0.0056515625
0000c0 9f 22 f8 3b 4e 88 17 3c 1c d7 ff 3b e1 d8 f4 ba
       0.0075724865 0.009248806 0.0078076255 -0.0018680358
0000d0 0c 60 83 3b 19 f6 1f ba e4 05 52 bb e3 24 25 bd
       0.0040092524 -0.000610204 -0.0032046968 -0.04031838
0000e0 2d 7e a5 3c b6 fe d9 bd 1d 0b 8d bc 0b 30 93 3d
       0.020201767 -0.106442854 -0.017217213 0.07186898
0000f0 a2 19 0c bd 53 e1 0e 3d b3 f9 bc 3c 08 cd 68 bd
       -0.034204133 0.034882855 0.023068285 -0.056836158
000100 97 05 05 be 55 f6 bc 3d e6 14 54 be 15 ba fe bc
       -0.12990414 0.092266716 -0.20711097 -0.03109459
000110 50 0a 43 3e 62 14 9a bd 0e 0a da 3d 57 4a d3 3d
       0.19046903 -0.07523419 0.10646449 0.103169136
000120 87 2f b7 bd 99 54 22 be fe b9 af 3d d6 67 7b be
       -0.08944612 -0.15852584 0.08580397 -0.24551329
000130 58 10 9c bd 71 d2 63 3e d0 28 02 be df 5f 04 3e
       -0.07620305 0.22248246 -0.12710881 0.12927197
000140 6d 1b 47 3e bf 02 02 3d f1 91 c8 3c 0e c0 fa 3c
       0.19444056 0.0317409 0.024483653 0.030609157
000150 2f d3 88 3c 94 44 d5 b9 65 c2 a6 3c 44 73 a9 3c
       0.016702263 -0.0004067762 0.020356366 0.020684846
000160 93 8c 73 3c 97 70 58 3c 8d ed c5 bd 1b 74 01 be
       0.0148650585 0.013210437 -0.0966445 -0.12641947
000170 60 7c a2 bd dc cd f5 bd ba ff 1d be 08 87 c6 bd
       -0.07933879 -0.12002155 -0.15429583 -0.09693724
000180 ba 28 c2 bd f8 2d e3 bd d2 37 b0 bd 7d ff 9c 3d
       -0.09480424 -0.11092752 -0.08604397 0.07665918
000190 00 b3 c3 3d ba d3 73 3d de 7b b5 3d 3e 5c 19 3e
       0.09555626 0.05952809 0.088615164 0.14976594
0001a0 0b 4d 91 3d bf 5d 92 3d f0 5f cc 3d 9b 99 49 3d
       0.07094773 0.07146787 0.09979236 0.049218755
0001b0 52 ec 30 3b 07 58 33 bb ed 86 98 bc 3f f3 7c 3c
       0.0026996327 -0.00273657 -0.018619025 0.015438854
0001c0 88 fa 31 3d 67 44 ab 3c d0 e9 3f 3b ac db 9b 3c
       0.043451816 0.02090664 0.002928365 0.019025646
0001d0 0a 5d a6 3c 1a 15 46 3d 34 20 a9 bb 82 8a 06 bc
       0.020308036 0.048359968 -0.0051613096 -0.008211734
0001e0 54 1e c9 3c 9b d0 e6 3c 1b 67 fe 3c 99 b7 8a 3c
       0.024550594 0.028175643 0.031055024 0.01693325
0001f0 49 2a 94 3c 46 18 29 3d 3d 9a c9 3c 89 ff e9 3b
       0.01808657 0.041282915 0.02460968 0.007141058
000200 57 f7 e1 bb 6d 04 d5 3c bf 00 10 3d ed a9 be 3c
       -0.0068959403 0.026003087 0.03515696 0.023274386
000210 f9 ce 4b 3c 3d 19 96 3c 33 8e 9b 3c b7 8c 0b 3c
       0.012439483 0.018322581 0.018988704 0.008517436
000220 c9 69 62 3d 9e 33 dc bd aa 8b 2e bd e8 68 28 3e
       0.055276666 -0.10752033 -0.042613663 0.16446269
000230 81 59 d4 ba 31 5a 14 be e9 b7 17 3d 6b d8 37 3d
       -0.0016200991 -0.1448753 0.037040625 0.044884127
000240 8b a7 91 3c 04 d1 ec 3d cf 30 58 be 4c f5 bf bd
       0.017780086 0.11563304 -0.21112369 -0.093729585
000250 0d a0 a2 3e e4 85 5f bd 6e b7 52 be 45 ae d0 3d
       0.31762734 -0.054571047 -0.20577785 0.10189489
000260 eb 88 97 3c a5 d4 5f 3d 82 cd 4c 3d 72 db 4a be
       0.018497905 0.054646153 0.050000675 -0.19810274
000270 86 b5 90 ba b5 60 90 3e 38 fd db bd 81 52 1a be
       -0.0011040426 0.28198782 -0.10741657 -0.15070535
000280 ed 34 0d 3e e8 08 e3 bc 00 00 00 80 00 00 00 80
       0.13789721 -0.027714208 -0.0 -0.0
000290 00 00 00 80 00 00 00 00 00 00 00 80 00 00 00 80
       -0.0 0.0 -0.0 -0.0
0002a0 00 00 00 80 00 00 00 80 00 00 00 80 00 00 00 80
       -0.0 -0.0 -0.0 -0.0
0002b0 00 00 00 00 00 00 00 00 00 00 00 80 00 00 00 80
       0.0 0.0 -0.0 -0.0
0002c0 00 00 00 80 00 00 00 80 00 00 00 80 00 00 00 80
       -0.0 -0.0 -0.0 -0.0
0002d0 00 00 00 80 00 00 00 80 00 00 00 00 00 00 00 80
       -0.0 -0.0 0.0 -0.0
0002e0 00 00 00 80 00 00 00 00 00 00 00 80 00 00 00 80
       -0.0 0.0 -0.0 -0.0
0002f0 00 00 00 00 f0 94 e1 bb 05 a8 03 3c b5 d8 19 3c
       0.0 -0.00688421 0.008035664 0.009390046
000300 ac 39 31 3c cf 92 f7 bb fd 61 ca bb 8e 46 92 3b
       0.010816973 -0.0075553427 -0.006176232 0.004463977
000310 96 c0 a7 bb d0 f5 3d bc 96 94 0c 3b e6 11 8d 3c
       -0.0051193936 -0.011594251 0.0021450869 0.017220449
000320 fe 09 b9 3c 01 9e f3 3b 16 bb db bb d2 a0 24 ba
       0.022587772 0.007434607 -0.006705652 -0.00062800676
000330 18 1c 0e b6 c1 b6 38 ba 4b 49 3d bb 10 09 19 3c
       -2.1176002e-06 -0.00070462754 -0.0028882797 0.00934054
000340 5a 77 83 3c de 0c a5 3c 89 2e 6f 3c 34 7b d0 3a
       0.016048122 0.020147737 0.014598497 0.0015905858
000350 22 fd 40 3c 19 c5 48 3c fb 29 49 3c 0f 28 89 3c
       0.011779102 0.012254023 0.012278075 0.016742734
000360 51 4b 7a 3d 8d 4d cf 3d eb b2 80 3d 5a ae 7d bc
       0.061106984 0.101222135 0.06284126 -0.015483463
000370 58 db a0 bc 6e c5 c4 bc f5 b1 64 bd ec 2e bb bd
       -0.019635841 -0.024019923 -0.055833776 -0.09139809
000380 4f f4 45 bd f7 ac 0d 3e 33 15 5b 3e 86 3f 15 3e
       -0.048328694 0.13835512 0.21394806 0.14575014
000390 97 11 83 bd 71 1f b2 bd 53 4e 95 bd 0c be 9d bd
       -0.06399839 -0.08697403 -0.0729033 -0.07702264
0003a0 11 45 ff bd fe 39 9e bd 31 4b 10 3e c7 7b 54 3e
       -0.12464345 -0.07725905 0.14091183 0.20750342
0003b0 3b ab 15 3e 42 ef 95 bd 21 d8 c5 bd a7 5d a6 bd
       0.146161 -0.073210254 -0.09660364 -0.081233315
0003c0 5d 44 9e bd 5a 67 f7 bd a5 f6 a5 bd 6f c3 13 bd
       -0.07727883 -0.120802596 -0.08103684 -0.036075052
0003d0 86 0c 34 bd a7 b2 e8 bc 33 f9 2f bd 26 5d 82 bd
       -0.043957256 -0.0284055 -0.042962264 -0.06365423
0003e0 e7 52 37 bd 59 5d d0 bc 52 31 34 bd 87 45 e7 bc
       -0.044756796 -0.025435137 -0.043992348 -0.028231395
0003f0 1c 92 74 3d 10 b7 9a 3d 71 93 7d 3d ff e1 8d 3d
       0.059709653 0.07554448 0.06190819 0.06927871

1195 f4 [24]
000000 03 80 65 3f 06 d7 30 be e9 a9 ab bc f8 1c 9a 3e
       0.89648455 -0.17269525 -0.020955043 0.30100226
000010 d5 6d 5d 3f bc a0 66 3e e9 3d cf 88 d3 66 a2 3e
       0.86495715 0.22522253 -1.2472914e-33 0.31719074
000020 f9 9d 9d 3d 70 11 8a 3e 71 4c 4b be e3 d6 6d 3e
       0.076961465 0.2696643 -0.19853379 0.23226504
000030 27 ef 44 3d 6e 1c c0 3d ff 3f 4e bf cf cd c3 3f
       0.048079636 0.093804225 -0.805664 1.5297183
000040 ca 9b df 8a ec 85 e0 3d e7 98 d0 07 d9 a5 19 3c
       -2.153272e-32 0.109630436 3.138623e-34 0.00937792
000050 10 e1 b7 3d 0a 8e fd 3b 00 2d 0f 3e 5f 92 9f 0a
       0.08978474 0.0077378796 0.1398201 1.5366202e-32
